HW6/cifar7.pt (torch, 75333 bytes, 8 tensors)

conv1.weight f4 [16, 3, 3, 3]
000000 bf ee 21 be 0d b9 72 3e 45 73 ea 3d 21 e2 d9 ba
       -0.1581373 0.23703404 0.11447767 -0.0016623178
000010 e5 be 2f bf 6e b4 af bd 88 ec 2c 3c 58 63 97 3e
       -0.68650657 -0.08579336 0.01055444 0.2956798
000020 90 00 cf bd 92 41 ae bd 9b c8 22 3e 8b d4 2b 3e
       -0.10107529 -0.085086 0.15896837 0.16780297
000030 0c 86 3a 3e 67 5b f2 be 49 79 05 3e 20 81 51 3a
       0.18215197 -0.4733536 0.13034548 0.00079919584
000040 e1 4f 03 3f f7 2d 4a be 81 f0 b4 bd dd 36 85 3d
       0.5129376 -0.19744097 -0.08834935 0.06504605
000050 f6 da 13 bd 55 18 3a 3c 55 a3 10 bf 1d 29 96 3d
       -0.03609749 0.01135834 -0.56499225 0.073320605
000060 58 e2 60 3d 9f a6 31 3e 2d 54 c6 bd c7 52 9e 3e
       0.05490336 0.17348717 -0.09684024 0.3092253
000070 b9 3d 85 3e f2 69 e7 bd 8e f3 28 3d 70 a7 b5 3c
       0.26023653 -0.11299504 0.041247897 0.022174567
000080 50 ef ed bd 56 32 27 3e 48 5b 8d 3e 53 db 77 bd
       -0.11617911 0.16327795 0.27608705 -0.0605119
000090 17 f9 47 bd f6 36 ab 3d 4e 78 7b be 9a f5 86 3d
       -0.048821535 0.08360092 -0.24557611 0.065898135
0000a0 ce 6e 5f 3c ff 72 a4 be 4c 4b b2 3e 18 94 e6 3e
       0.013637258 -0.32118985 0.34823072 0.45034862
0000b0 03 85 c4 3d 7c 7f 95 be 34 8c e1 bd d7 be 91 be
       0.095956825 -0.29198825 -0.1101307 -0.28465912
0000c0 a2 e2 b3 bc 0f 00 7e be ea ba b8 bc 2f 04 0a be
       -0.021958653 -0.2480471 -0.022550065 -0.13478158
0000d0 f5 28 04 be 31 b2 16 be 63 c2 0d 3f 6a c4 3a 3e
       -0.12906249 -0.14716412 0.55374736 0.18238989
0000e0 a6 16 f0 3d 64 d2 ca 3d 50 91 99 3e 70 0a e6 3d
       0.1172307 0.0990341 0.29993677 0.112324595
0000f0 dd c7 fe be d4 a9 c4 be cc 0b b6 be 6f 87 92 3e
       -0.4976186 -0.3841082 -0.35555875 0.28618953
000100 74 dd fb bd fb a8 4e 3e 5d 30 cc bc 80 aa 11 3e
       -0.12298098 0.20181648 -0.024925405 0.14225197
000110 e6 30 0a be 2c 5b b2 be ec 04 39 be 00 c0 84 3d
       -0.13495216 -0.34835184 -0.18068284 0.064819336
000120 79 9c 9d 3e 71 87 80 bc ad 80 50 3e e1 b2 0f bd
       0.30783442 -0.015689583 0.20361586 -0.0350827
000130 0f 90 eb 3d 67 2e a0 bd 14 52 10 be f5 44 2a be
       0.11502086 -0.078213505 -0.1409381 -0.16627868
000140 67 c7 52 be a8 b7 88 3d c9 ca 79 3e 0d f6 2b 3c
       -0.20583878 0.06675655 0.24393763 0.010495675
000150 53 43 34 bd 32 8c 42 3e 13 f6 5f be 89 cc 96 3d
       -0.044009518 0.18998793 -0.21871214 0.07363231
000160 8f be 62 bd 42 6c 2c 3e f3 6f 01 3e 3b 15 38 3e
       -0.055357512 0.16838172 0.12640361 0.17976849
000170 ce b5 ae bd 7f 0f 10 3e 46 12 60 bd 1c 86 3c 3e
       -0.0853077 0.14068411 -0.054704927 0.18410534
000180 fd 38 9b bd e1 a6 67 3e 58 f3 79 3d 30 34 f3 3b
       -0.07579229 0.22622253 0.061023086 0.0074219927
000190 81 24 60 3e 22 61 de bd 15 c7 92 b9 7e 8e 2d 3e
       0.21888925 -0.1085837 -0.00027995618 0.16948888
0001a0 2d e9 98 bc 7c 0c 22 3d cc 00 fc 3d d8 1f 1a be
       -0.018665874 0.039562687 0.123048395 -0.1505121
0001b0 95 e1 f0 3d 30 03 67 3d 9b 57 18 3d 45 a7 cf 3b
       0.11761776 0.056399524 0.037192922 0.0063370788
0001c0 00 18 c0 bd ff 31 b3 3e c3 74 e7 3d 61 02 65 be
       -0.09379578 0.34999081 0.113015674 -0.22364189
0001d0 d9 e9 ef 3d e6 2a bd be 58 9f 9a 3e 10 fc 65 3d
       0.11714525 -0.3694679 0.30199695 0.05614859
0001e0 eb dd b4 be db ef 50 3e bb 67 8b 3e 83 cd a8 be
       -0.3532556 0.20403998 0.27227578 -0.32969293
0001f0 82 a2 93 3c c8 11 83 bd ea 5d 4f be f2 7c 86 3e
       0.018021826 -0.06399876 -0.20250669 0.262672
000200 78 37 a1 3c ee 3e b8 be b1 18 62 3d 85 a7 53 3e
       0.01967977 -0.35985512 0.05519933 0.20669372
000210 ba 9c e4 bd 28 91 5b be 04 1d 53 3d 53 1a 5a bd
       -0.11162706 -0.21442091 0.051541343 -0.05324776
000220 0a 1b 00 3e b3 cf 9e 3e c2 4d c2 be 00 96 21 bf
       0.12510315 0.31017837 -0.3794995 -0.63119507
000230 a9 bc c2 bc a3 39 35 be cf 67 5c be f6 e9 76 be
       -0.0237716 -0.17697768 -0.21523975 -0.24112687
000240 0f 19 99 3c 78 0b a9 bd 1b d3 a7 be 9d fa d2 3d
       0.018688707 -0.082541406 -0.32778248 0.10301707
000250 dd 8a 70 3e f7 61 23 bd 42 bb 44 bd 88 08 8d 3e
       0.23490472 -0.03988835 -0.048030145 0.2754557
000260 10 f8 29 3d 41 da f8 3d 67 21 fe 3d 21 95 06 be
       0.041496336 0.12151004 0.12408715 -0.13142826
000270 60 31 82 3e 98 c4 bd 3e a2 7e 80 3e 9c 30 83 3c
       0.25428295 0.37064052 0.25096613 0.01601439
000280 58 bc a7 3e 41 de 68 be e1 0b b7 bd 15 91 1f be
       0.32760882 -0.22741033 -0.089378126 -0.15582688
000290 f6 af 35 3e 74 4a 52 be 53 78 08 3f f6 8c 14 be
       0.17742905 -0.20536214 0.533086 -0.14506897
0002a0 a5 c2 fc be 5c 1d c3 3d 4a 9b 9e be 76 95 26 bd
       -0.49367252 0.09527084 -0.3097785 -0.04066988
0002b0 a9 a5 0b 3e 22 00 c8 bd e7 25 2b be 7d df b9 3e
       0.13637413 -0.0976565 -0.16713677 0.3630332
0002c0 d6 20 22 bf 92 4e a4 3c 58 2f 48 3f 59 ba 9b be
       -0.63331354 0.020056996 0.7819724 -0.3041561
0002d0 04 0d 09 3e fd 60 c5 bd 2a 04 40 3e 5e ca 29 be
       0.13383871 -0.0963764 0.18751588 -0.16581103
0002e0 ee d9 09 3f 98 c7 91 be 58 cc 73 be 4c d0 13 3f
       0.5384816 -0.2847259 -0.2380842 0.5773971
0002f0 ee 94 3a be aa 1f 04 bd b5 a9 86 3d 99 84 45 3d
       -0.18220875 -0.03225676 0.06575338 0.048222158
000300 61 57 b9 bd 0f 10 37 3e 73 87 bb 3d 16 9b 1f 3d
       -0.09049869 0.1787722 0.09156694 0.03896626
000310 bb da 2b 3d ac 89 ab 3c 6c df 92 bd 01 5d 12 bc
       0.041956645 0.02093967 -0.071715206 -0.008933307
000320 f5 ac 73 3d 4a db 06 3d c1 ea 63 3d 56 35 14 bb
       0.059491117 0.032923974 0.0556438 -0.0022614799
000330 c5 63 a4 3c 49 57 43 bc 85 4e ce bc 9f cf 2a 3e
       0.020067105 -0.011922666 -0.025183925 0.16680764
000340 4c b0 2f bd 6d 2b 3d be 65 b6 7b 3d 9b ac bd 3e
       -0.04289274 -0.18473597 0.06145324 0.3704575
000350 0a 9d 07 3e f8 06 1e bd eb 68 28 bc f0 e5 76 3d
       0.132435 -0.038580865 -0.010278921 0.06027788
000360 b2 9a 2a 3e a5 b1 51 bf 4c 43 89 bc 66 65 41 3e
       0.16660574 -0.8191169 -0.016755722 0.18886337
000370 79 1b db 3c ab 8a de 3e 2d a2 48 3e a6 54 ac be
       0.026746498 0.4346517 0.19593115 -0.33658332
000380 8b e0 dd 3d f6 c0 a8 bd f8 1e c7 be 55 0c 1a 3e
       0.10833844 -0.082399294 -0.38890815 0.15043767
000390 e4 e9 0c 3f 01 b7 61 3e a8 12 ca 3e 6c 37 a1 bd
       0.5504439 0.22042467 0.3946736 -0.07871899
0003a0 80 19 00 bf 14 5c fb bc 90 e5 63 bd 95 3f df bd
       -0.5003891 -0.030683555 -0.05563885 -0.10900799
0003b0 ae 6e 10 bd 64 6a 4e 3e 31 ce c9 3e 52 24 e6 3d
       -0.035261802 0.20157772 0.39415124 0.11237396
0003c0 3e 91 b1 bd 94 e6 28 be 19 61 84 be 6e 5d 8b 3e
       -0.08670281 -0.16494209 -0.2585533 0.2721972
0003d0 7a 65 d4 be 23 0f 46 3b 64 a4 02 3f a4 ff c0 be
       -0.4148367 0.0030221425 0.5103209 -0.37695038
0003e0 29 1a b7 3b 15 9a f8 3d 96 cf 11 be 78 da 9e be
       0.0055878353 0.12138764 -0.14239344 -0.31026053
0003f0 fa b1 7b 3e 42 a9 ce be 3e 68 3e 3e 76 3a 5e 3e
       0.24579611 -0.40363508 0.18594453 0.21701989

conv1.bias f4 [16]
000000 11 07 3b be 14 79 4b be ae 15 64 bf 72 ad c6 3e
       -0.18264414 -0.19870406 -0.8909558 0.38804203
000010 0b 23 5d be bb 75 ab be e0 2b 07 be c8 8f 04 bf
       -0.21595399 -0.3348826 -0.1320033 -0.5178189
000020 4c 64 62 bf 93 ae a3 be 4a 7b 76 be 2e 7d 82 bf
       -0.8843429 -0.31969127 -0.24070469 -1.0194452
000030 2c 83 f6 be 39 9a 81 bd e5 2e cb be 8b 17 b8 be
       -0.4814695 -0.06328244 -0.39684215 -0.35955462

conv2.weight f4 [8, 16, 3, 3]
000000 c4 b0 9c 3c b4 a8 58 3e a7 c9 b4 bd 51 fc 20 bd
       0.019127257 0.21158105 -0.08827525 -0.039303128
000010 97 7e 61 3e 65 e9 11 3e 65 b0 ad 3d da 46 ea 3b
       0.22020946 0.14249189 0.0848091 0.0071495594
000020 fc cf 6d 3b 4a 98 84 3d 4a 7c 33 be be e8 52 be
       0.0036287298 0.06474359 -0.17527881 -0.20596597
000030 a7 3d 4f 3d 8c d8 d5 3d 31 62 18 3d cb d3 1d be
       0.050595906 0.10441694 0.037203018 -0.15412824
000040 ee 19 a0 3d 4c 1c 2c 3e d1 c4 c4 be 8d c5 3f 3d
       0.07817446 0.1680767 -0.3843141 0.04681926
000050 f7 aa 81 3e 45 83 f8 bd 1b 2c 12 be c6 d1 8a 3e
       0.25325748 -0.12134413 -0.14274637 0.2711317
000060 78 42 91 bd 43 90 0c bc f9 7f 30 3e b8 39 e0 3d
       -0.07092756 -0.008579317 0.17236318 0.10948509
000070 8d dd b3 ba 0f 9e 40 be 2c 1e fa 3d 1b 7d 78 3d
       -0.0013722643 -0.18810295 0.12212786 0.060666185
000080 3e ce 93 bc 2e 16 59 3d 45 39 38 bd 23 c5 36 be
       -0.01804268 0.052999668 -0.04497649 -0.17848639
000090 3d 9a 3c be e8 cf 0b 3e 31 3d 73 be e3 1e fa 3d
       -0.18418212 0.13653529 -0.23753811 0.122129224
0000a0 f7 d6 68 bd ca c2 4b bb 4e ee 89 bc 61 64 41 bd
       -0.05684563 -0.0031091445 -0.016837265 -0.04721487
0000b0 7a d2 96 3d a6 99 8e be f0 23 d2 be 2d c0 73 bd
       0.07364364 -0.278516 -0.41043043 -0.059509445
0000c0 57 2d 50 be 16 67 13 bf 5c a9 88 bc a3 1b 04 3e
       -0.20329796 -0.5757917 -0.01668232 0.12901168
0000d0 0c 03 28 be 51 9a 9b 3d d0 5f 62 3d 21 4c 88 3d
       -0.16407412 0.07597793 0.055267155 0.066551454
0000e0 5c fb c0 bc fa bb c9 bd 3c 06 30 bd b6 bf c1 bd
       -0.023557357 -0.09850307 -0.042974696 -0.09460394
0000f0 33 3f 55 bc 0f 44 3a 3b e0 6b 30 3d dc 88 16 3e
       -0.013015556 0.0028421914 0.043071628 0.14700645
000100 d1 4d 9d 3d 73 73 2c bc 11 b6 1b 3e 56 cc c6 3d
       0.07680858 -0.010525572 0.15206172 0.09706943
000110 7e 20 d7 3d 4a 39 3f 3e 27 fe 2b 3e 3c 04 37 3d
       0.10504244 0.18674198 0.1679617 0.044681773
000120 05 ce 1c be e5 9b 89 be 15 f7 30 be 03 31 b5 be
       -0.15312965 -0.2687675 -0.17281754 -0.35388955
000130 1e 49 2e be 84 04 8a be eb 6e 80 be 27 23 96 be
       -0.1702008 -0.2695657 -0.25084624 -0.29323694
000140 db 1b 44 be 5c 04 87 3e 5b 29 37 3e b7 f7 7f bd
       -0.19151251 0.26370513 0.1788687 -0.0624921
000150 27 2e 97 3c d1 8b 69 3e 8b 08 52 3d 76 bc 1a 3e
       0.018454624 0.22807242 0.05127768 0.15110955
000160 49 fa ab 3b 4f df 9c 3e f0 29 86 3e 30 3d 22 3d
       0.005248342 0.3063912 0.2620387 0.039609134
000170 e4 e7 05 be f1 85 84 3d f2 b8 6d 3d ea a8 09 be
       -0.1307674 0.0647086 0.058037706 -0.13443342
000180 07 cd a4 bc 47 88 82 bd 53 7d d0 bc c8 8c f5 bc
       -0.020117296 -0.06373649 -0.025450384 -0.029974356
000190 d1 58 7c 3e f9 99 37 3e e9 d3 dc 3d ef 06 61 3d
       0.24643256 0.1792983 0.10782606 0.054938253
0001a0 3d d7 0c 3e 80 0f b5 3e 6d 5b 52 3e ea b4 8c 3e
       0.13753982 0.35363388 0.20542689 0.27481776
0001b0 dc 3e cd 3d 06 f3 b2 3c 24 e9 7f 3e 75 fe 21 3e
       0.10021755 0.021844398 0.2499128 0.15819724
0001c0 2d 46 0b 3e d2 42 d5 3d 39 f3 00 3d b3 9e ee 3d
       0.13600989 0.104131356 0.031481955 0.11651363
0001d0 f5 84 91 bc 7a 1d 85 3e d9 79 4f 3b 20 7a 95 bd
       -0.017763594 0.2599905 0.003165832 -0.07298684
0001e0 ac 1e 9f bc 12 f5 6c bd 5e 2f 7b be 6c ae ba 3c
       -0.019423805 -0.057850905 -0.24529788 0.022788249
0001f0 bb 1a 2a be 8d 9d b4 bc c2 09 52 3e fa 00 40 3e
       -0.1661176 -0.022047782 0.20511535 0.18750373
000200 c9 68 fe 3c ce 3d dc 3d c4 80 88 3e a0 a4 22 3e
       0.031055825 0.10753976 0.2666074 0.15883112
000210 40 a7 53 3e cd 4c b7 bc 72 ef 2c 3b 44 82 48 bd
       0.2066927 -0.022375489 0.0026387838 -0.048952356
000220 1f c7 6a 3d 55 a2 f4 bd ba ec 39 be fe b1 ca bd
       0.057318803 -0.11945025 -0.1815671 -0.098972306
000230 c4 fd 4d be 57 bd bd bd 07 cc d8 bd 69 a2 19 be
       -0.20116335 -0.09264629 -0.1058579 -0.15003361
000240 5d 3c 5b be 19 35 c9 b9 4b 59 97 bc 2b 49 a9 bd
       -0.21409746 -0.00038377268 -0.018475195 -0.08265909
000250 fa 8a 84 bd f4 c3 87 be 01 71 86 3c 3d c3 77 3c
       -0.0647182 -0.26516688 0.016411306 0.015122232
000260 38 b1 2a 3c f9 35 1c be a2 cd 76 3e c4 16 15 3e
       0.010418229 -0.15254964 0.2410188 0.14559466
000270 15 06 a9 3d 23 e9 c0 3e 0e 9c 72 bd 33 56 4c bd
       0.08253113 0.3767787 -0.059230857 -0.049886893
000280 49 8a 6c 3e f2 58 13 be 9c 99 48 3e 4f 96 72 3d
       0.23099627 -0.14389399 0.19589847 0.059225377
000290 ca 27 a5 3d 8e 2f ac 3e d2 6b 56 3e 71 75 e5 bb
       0.0806423 0.3363003 0.20939568 -0.0070025255
0002a0 1f 3a af 3d f0 43 d2 3d ee 6c af 3e 59 17 3a be
       0.085560076 0.10266864 0.34262794 -0.18172969
0002b0 a7 63 42 be bb 1a ce 3c 29 ce 5c be 7f c5 b8 be
       -0.18983327 0.02515923 -0.21563019 -0.36088178
0002c0 8c 28 b0 bd e8 d6 4c bd 9e e8 ea bd 13 cf 06 3e
       -0.08601484 -0.050009638 -0.114701495 0.1316493
0002d0 3d 1e 10 3e c6 a3 c6 bc 2b 89 d2 bd 61 dd 92 3e
       0.14074035 -0.024248015 -0.10280069 0.28684524
0002e0 f1 3b 44 3e e6 33 12 be fe 1e 3a 3d 2b 7d 2b 3e
       0.19163491 -0.1427761 0.045439713 0.16746967
0002f0 85 ed a9 bc 79 84 46 3e d3 e6 c5 bd 21 3e 4d 3e
       -0.020743141 0.19386472 -0.09663167 0.20043232
000300 46 a1 f4 3d ca 63 7b be 16 d3 87 bd 08 91 cf 3e
       0.11944823 -0.24549785 -0.06632058 0.40540338
000310 9c ed 30 3e f1 d2 b9 3e ff 99 a7 be 83 b0 f4 bd
       0.17278141 0.36293748 -0.32734677 -0.119477294
000320 d5 8e 56 be b3 ff b6 3d 5d 5e 14 be 38 61 ba bd
       -0.20952924 0.089354895 -0.14489122 -0.09100574
000330 75 1d 96 3e 54 ef 50 3b ec b5 4a 3e 05 e8 78 bd
       0.2931935 0.0031880932 0.1979596 -0.060768146
000340 21 a3 7a bd 74 f2 ab bd e1 31 d9 3c 0a ac b7 bc
       -0.061190728 -0.08395854 0.026513042 -0.022420902
000350 79 4e 56 bd 4a 22 68 bd 26 cf e7 3d 80 be 84 3d
       -0.05232093 -0.056673326 0.11318807 0.064816475
000360 77 5b 50 3e 06 aa fb 3d 0c cb 70 3e 11 76 0d 3d
       0.20347391 0.12288289 0.23514956 0.034536425
000370 59 be 84 3e 1e af af 3c e8 48 0a bd 37 36 af 3d
       0.25926474 0.021445807 -0.033760935 0.085552625
000380 eb 59 95 3e 11 fe f6 bd 78 9c b0 bd c2 a7 d9 bb
       0.29170164 -0.12060178 -0.08623594 -0.0066423127
000390 18 96 b2 bd 83 08 2e be 46 93 a9 bb 08 08 86 3e
       -0.08720034 -0.16995434 -0.005175027 0.26178002
0003a0 61 09 4c 3e f5 30 6c 3b 67 8e 39 be 6b c1 82 be
       0.19925453 0.0036039923 -0.18120728 -0.2553819
0003b0 80 96 76 bd 16 c9 eb bb 56 9f a9 be 7b 8f 9a bd
       -0.06020212 -0.007195602 -0.33129376 -0.07546898
0003c0 de 59 83 3e 23 4e c0 bc 97 34 08 bd 00 63 06 be
       0.256545 -0.023474758 -0.03325328 -0.13123703
0003d0 9d 5f 9c bd c8 cd 42 be 1a ac 5a 3b a3 58 69 b9
       -0.07635424 -0.19023812 0.003336674 -0.00022253631
0003e0 35 24 e5 3d 9c bb 0a be d6 47 13 3c df 8e 9d bd
       0.111885466 -0.1354813 0.008989295 -0.07693266
0003f0 e4 ec 4d 3d 38 2c c3 bc 25 2a a1 be 83 79 96 3d
       0.050274745 -0.023824796 -0.31477466 0.07347395

conv2.bias f4 [8]
000000 68 3b 6e be 8d e3 a5 be ec aa dc bd e8 84 59 be
       -0.23264849 -0.3240017 -0.10774788 -0.21242106
000010 99 4b 74 3e 9e bd eb be c4 8e 34 3d 49 71 55 be
       0.23856963 -0.46043104 0.044081464 -0.20843996

fc1.weight f4 [32, 512]
000000 eb c8 e8 bd aa 49 24 be 85 2b 46 bd 93 77 0f 3e
       -0.11366447 -0.16043726 -0.048381347 0.14010458
000010 81 c5 cd 3c ed 16 81 bd f3 72 c6 bc 51 0b e2 bd
       0.025118591 -0.06303201 -0.024224734 -0.11037315
000020 3e 9a 93 bd 06 30 a7 bd 35 5c 14 bd af 41 04 3c
       -0.07207154 -0.081634566 -0.036220748 0.008072301
000030 d6 9a ab 3c da 54 88 bd 10 d6 eb bc a1 ee 87 3b
       0.020947855 -0.06656809 -0.028788596 0.00414832
000040 a6 fe 71 bd d3 78 94 bd c0 06 21 be 4c e1 c4 bd
       -0.059080742 -0.07249608 -0.15725231 -0.096132845
000050 34 f6 29 bd 88 9e 8b bd cf 08 8f 3b 95 96 2f 3d
       -0.041494563 -0.06817347 0.0043650637 0.042868216
000060 d8 97 4b 3d 60 78 d4 bc 0b ab b4 bd 0c 6b d1 bd
       0.049705356 -0.025936306 -0.08821686 -0.10225496
000070 ce 77 38 bd f9 d4 e5 bc 08 fe db 3d 0d 89 1c bd
       -0.04503613 -0.028055655 0.10741812 -0.03821664
000080 72 ca 94 3d a6 6d f9 3c d5 7f b3 bd e9 23 c5 bd
       0.07265176 0.030447792 -0.087646164 -0.0962599
000090 f1 bc 7a 3c 8d 53 83 bd 59 ae b8 3b 81 56 49 3d
       0.015303836 -0.064124204 0.0056360182 0.049154762
0000a0 07 04 25 3d fe 2f a0 3c f8 d5 1a 3c 79 2c f3 bd
       0.040287044 0.019554134 0.009450428 -0.11873717
0000b0 b4 1d 95 bd 81 3a c6 bc 18 af 14 bc d0 ad 7c 3d
       -0.07281056 -0.024197819 -0.009074949 0.061689198
0000c0 50 08 61 bd 6c ef 4b bc 80 e9 1d be 92 9d 92 bd
       -0.054939568 -0.012447219 -0.15421104 -0.071589604
0000d0 98 67 21 be f7 c0 d6 bd fc 11 87 3d cc 89 bb 3d
       -0.15762174 -0.10486024 0.06595227 0.09157142
0000e0 d9 94 cf bd 85 c4 8d 3d cd 32 0d 3c 3b ff f8 bc
       -0.10135812 0.06922249 0.008618069 -0.03039514
0000f0 1e 91 20 bc 63 87 6a 3d 0e f7 3a 3d 3a ca 1a 3d
       -0.009800224 0.05725802 0.045645766 0.037790515
000100 29 57 65 bd 8c 4c c3 bc 72 16 2f 3d e6 b5 ab 3c
       -0.055991326 -0.023840211 0.042746015 0.02096076
000110 ad ad 1b bd 38 ce a5 3c 3b 23 83 3d ae 76 80 bd
       -0.038007427 0.020239934 0.06403204 -0.06272636
000120 12 6a 85 bd aa 41 98 bd fe 85 d0 bc a3 c5 34 3d
       -0.06514372 -0.074343994 -0.025454517 0.044133794
000130 78 05 f5 3d e0 41 c9 3b 0b ae 0d 3c b6 bb 62 bc
       0.11963934 0.006141886 0.008647452 -0.013838699
000140 52 92 69 bc f2 70 ec 3c 64 1f 3e bd 5c 6b e1 3d
       -0.014256077 0.02886245 -0.046416655 0.11006805
000150 09 1c b0 3d f2 59 2f 3d 5d 0a 9f 3d 6d 37 54 3d
       0.08599097 0.042810388 0.077656485 0.05181067
000160 a6 a6 03 bb 68 09 70 bc f6 76 c0 3c 81 02 94 3d
       -0.0020088344 -0.01465068 0.023494225 0.0722704
000170 ba bd e7 3d 1e 10 94 3d ba d0 b3 3d 56 57 20 3d
       0.11315484 0.072296366 0.08780046 0.03914579
000180 39 76 8a bc 17 90 63 bd c1 db 90 3d ab 8b 01 3e
       -0.016902076 -0.055557337 0.07073165 0.12650935
000190 e0 b3 ce 3d 5c c7 01 bd 08 e1 42 bd 8c 28 81 bd
       0.10092902 -0.031684265 -0.047577888 -0.06306562
0001a0 ac c5 b4 3d 2d 02 7a bb 2b 8d 34 bc 6c 76 96 3d
       0.088267654 -0.003814827 -0.011019985 0.07346806
0001b0 26 6b cc 3d e6 68 1b 3d d0 fc 8a 3c 72 c2 83 bd
       0.099813744 0.037941836 0.016966254 -0.06433572
0001c0 52 ce 84 3d c6 d7 82 3d c9 ab 5d bc ef 94 af 3c
       0.06484665 0.06388812 -0.013529726 0.021433322
0001d0 3c c2 b3 bc c2 6a 77 3d 62 56 d7 bc 4b 97 90 b9
       -0.021943204 0.060404547 -0.026286308 -0.00027578542
0001e0 1d 9b a7 bd 34 3c 55 bd 75 71 ab bd a4 f0 c9 bc
       -0.081838824 -0.052059367 -0.083712496 -0.02465088
0001f0 1d 8c 0f be 09 fb 46 be 4b 84 f2 bc 2f 7d 2c be
       -0.14018293 -0.194317 -0.029604098 -0.16844629
000200 c3 a8 88 3d 03 97 82 3d 4b a9 6e 3d ea 88 7f bd
       0.06672814 0.063764594 0.05826692 -0.06238643
000210 69 d9 bb 3b d8 84 45 bd 5e 07 80 3d 10 09 48 bd
       0.0057327044 -0.048222393 0.06251405 -0.048836768
000220 f5 c0 28 3d 1d 97 82 3d e3 44 94 3d fc 1b 63 3c
       0.041199643 0.06376479 0.072397016 0.013861652
000230 fe 2c a8 3d d8 d8 9b bd 16 58 cd bd ad 42 f7 bc
       0.082117066 -0.07609719 -0.10026567 -0.03018316
000240 2a 8e 9d 3d 2c be 2c bd f6 46 ba bd 60 ee fd bd
       0.07693131 -0.04217355 -0.09095566 -0.12398982
000250 4e 49 7f bd de e6 2b bd 0b b8 95 bd 9d a1 17 3b
       -0.06232577 -0.04196822 -0.07310494 0.00231371
000260 6c 93 79 ba d0 d6 8d 3d 8b 36 3b 3d cd 6f 0f bd
       -0.0009520564 0.06925738 0.045706313 -0.03501873
000270 15 c5 dd 3b c1 da ee 3c f0 9f a5 bd f3 9a 63 3c
       0.006767879 0.029157044 -0.08087146 0.013891923
000280 f5 88 cc bb 68 df 82 bb 68 0d d1 bd ea 40 c0 bd
       -0.0062419125 -0.0039939173 -0.10207635 -0.093873814
000290 c3 62 c7 3c 60 c3 27 be 93 a2 40 bd 08 ad be bb
       0.024339085 -0.16383123 -0.047030043 -0.005818967
0002a0 99 b1 8c 3d f1 62 ab 3d a9 14 91 3d 0d 75 4b be
       0.068698116 0.08368481 0.07084019 -0.1986887
0002b0 26 a4 fe bd 98 5c 3b be b8 ee f5 bd e8 a8 2f be
       -0.124336526 -0.1829704 -0.120084226 -0.17154276
0002c0 6b 9f e2 bd ac 5f bc 3a 2b e2 45 3d 57 60 49 3d
       -0.11065563 0.0014371774 0.048311394 0.049164142
0002d0 ce b9 da bd 0d 8e fb bd 91 08 9d bd 0e 2c d3 bd
       -0.10679971 -0.122829534 -0.076676495 -0.10311137
0002e0 64 65 89 bc 22 7f a8 3b a3 ea 9c 3c 11 0f 01 3e
       -0.01677198 0.0051421085 0.019154852 0.12603404
0002f0 45 d2 04 be fc 10 3b be f0 34 30 bd 5b 67 55 bd
       -0.12970836 -0.18268198 -0.043019235 -0.05210052
000300 d4 b9 c3 3d 52 42 5a bd ea d7 51 3d 6f 45 df 3d
       0.09556928 -0.053285904 0.051231302 0.10901915
000310 57 b2 38 3d 91 5c de 3d a0 2d 0e bd 5c 1f df bc
       0.045091953 0.108574994 -0.03471148 -0.027236633
000320 a4 4c a4 3d c8 7e ac bc 94 b9 db 3c 68 1d 58 3d
       0.080224305 -0.021056548 0.026821889 0.05276242
000330 c7 63 e7 3d 0f 7b fa 3c 1e a6 9e 3b be 16 09 3d
       0.11298328 0.030576257 0.00484158 0.033468954
000340 a0 43 d5 3c 39 b7 8e 3d 4a d2 79 bd 51 59 b8 3d
       0.026033223 0.06968541 -0.060991563 0.09001411
000350 b1 57 4c 3e 72 c2 84 3d b2 10 a8 3d de a2 8d 3c
       0.19955327 0.064824 0.082063094 0.017289575
000360 bf fe 9b 3d d9 32 2a 3e ea 2f f0 3d 12 dd 50 3d
       0.07616948 0.1662096 0.11727889 0.05099208
000370 f2 4b 5d 3e ac 11 a0 3d 14 cf f8 3d fc bd 14 bd
       0.21611002 0.07815871 0.12148872 -0.036313996
000380 d1 d4 11 3c 32 c7 aa 3c 4c 8d 03 3e ec 35 ac 3d
       0.008900837 0.020846937 0.12846869 0.08408722
000390 76 2b ca 3d c9 5b de 3c 67 b5 7c 3d 31 eb 4a 3b
       0.09871571 0.027143376 0.061696436 0.003096294
0003a0 1d 3f 9b 3c 8d 50 56 3c 5c 5c 03 bd 92 96 8d 3d
       0.018950993 0.013080728 -0.032070503 0.06913485
0003b0 52 4e 97 3d b1 b2 e7 3b 41 13 c6 3c f8 40 c4 3c
       0.07387985 0.007070862 0.024179103 0.02395676
0003c0 e3 13 50 3c cf 7c cd 3d c4 19 64 3d d1 37 eb 3d
       0.012700054 0.10033571 0.055688635 0.114852555
0003d0 b2 2b c8 3d 3c 02 3a 3d 93 7c 27 3e 6a de 7d 3d
       0.09773959 0.045412287 0.16356115 0.06197969
0003e0 5d 85 f7 bd 71 f5 0d be 8e d2 5b 3a a9 bb 12 bd
       -0.12085984 -0.1386316 0.0008385562 -0.035823498
0003f0 ac 41 6e bd 65 9e 1a be f6 b8 28 be a7 6e 8f bd
       -0.0581681 -0.15099485 -0.16476807 -0.07003527

fc1.bias f4 [32]
000000 2a 63 05 3d fa 52 07 be 6b 4a 6d bc 3a c1 53 bd
       0.032565273 -0.13215247 -0.014483075 -0.051697947
000010 74 52 f4 bd 37 6e 37 be fa 31 10 3d 88 58 b0 bd
       -0.11929789 -0.17913137 0.03520391 -0.08610636
000020 a9 79 db 3c 3e 60 bf bd a5 dd e6 3c 6e f1 c2 3c
       0.02679141 -0.093445286 0.02818186 0.023796763
000030 18 98 f4 bd 38 a0 9d bd 95 39 88 bc a7 0a 9f bd
       -0.11943072 -0.07696575 -0.01662902 -0.07765704
000040 23 51 46 bd d7 79 3a 3e bf c4 fa bd 5f 4e 7b bd
       -0.04841722 0.1821054 -0.122445576 -0.061354037
000050 a4 67 72 bd 16 b4 1b 3e 32 84 fc 3d d0 d1 93 3c
       -0.05918087 0.15205416 0.12329902 0.018044382
000060 68 34 48 3d 3b 9a 6c be 88 d3 9b 3c 1b ff 1f be
       0.048878103 -0.23105709 0.019021764 -0.15624659
000070 70 01 12 be 98 b4 3c bd 2a 11 21 be 87 48 42 bd
       -0.14258361 -0.046070665 -0.15729204 -0.04743245

fc2.weight f4 [7, 32]
000000 00 1b c5 be 93 2c e9 be 51 d5 aa 3e a0 39 6f bf
       -0.38497162 -0.4554182 0.33365873 -0.93447304
000010 00 a4 15 bf c4 3f da bd b5 68 69 bf d4 90 67 3f
       -0.5845337 -0.106566936 -0.91175395 0.90455365
000020 1a 5d 29 3f fa b7 af 3e 7a 2b 49 3f 3e c6 10 bf
       0.66157687 0.3432005 0.78581965 -0.56552494
000030 ed 2c d8 be 50 8a 1f 3f 3c cf 06 bf 17 52 b3 bd
       -0.42221776 0.62320423 -0.52659965 -0.08755892
000040 a4 76 30 bf 47 67 1c 3f 03 75 bc 3e 84 ab 41 bf
       -0.6893103 0.6109509 0.36808023 -0.7565234
000050 6c 5d 36 bf 4f f2 86 3f 0b e8 51 be 80 88 83 bf
       -0.712363 1.0542697 -0.20498674 -1.0276031
000060 96 97 ea 3e 3b 5a 38 bf 5d b2 91 bd d1 0f 56 3f
       0.45818776 -0.7201268 -0.07114098 0.83617884
000070 8a 5f 0e bf a7 ba 1a bf 01 46 8f be 7b 26 43 3f
       -0.5561453 -0.6044106 -0.27983096 0.7623059
000080 ed 3a 2e bf 76 39 fe be 2a 35 80 bf 31 58 67 3d
       -0.68058664 -0.49653214 -1.0016224 0.05648059
000090 e5 b0 7f 39 e5 8f f2 be 90 99 2e 3e f0 99 58 bf
       0.00024384593 -0.47375408 0.17050767 -0.8460989
0000a0 49 35 c6 3e 81 a8 ea be 10 3a 28 3e ca d1 54 3f
       0.38712528 -0.45831683 0.16428399 0.8313261
0000b0 36 e8 1e bf 38 05 a1 be 84 0f 25 3f 11 3b 34 bf
       -0.62073076 -0.31449294 0.644768 -0.7040263
0000c0 64 fb 1c 3d 89 3b 5a 3d 2c 64 9c be 92 fa 37 3f
       0.038325682 0.053279433 -0.30545175 0.71866715
0000d0 49 da 98 be dc e8 e8 bc e1 b2 d3 be fa 46 2a be
       -0.29854038 -0.028431349 -0.4134741 -0.16628638
0000e0 21 57 45 bf 50 c9 20 3f 68 dd 20 bf 46 31 8b be
       -0.77086073 0.6280718 -0.6283784 -0.2718603
0000f0 cb 38 03 bf 42 d5 74 be 36 70 33 3f fd 64 05 bf
       -0.51258534 -0.23909476 0.70093095 -0.5210722
000100 a8 f6 fa 3e f1 d9 ae 3e 7a b3 6c bf 2a 5a 51 be
       0.4901631 0.3415065 -0.9246136 -0.20444551
000110 71 1a 80 be be 1d 33 3f 3f 30 fc 3d de 7e 72 bf
       -0.25020173 0.6996726 0.1231389 -0.94724834
000120 a7 f8 68 bf 36 68 6a bf 5a a9 7e be 61 f7 52 3d
       -0.91004413 -0.91565263 -0.2486929 0.05150545
000130 87 c0 ab 3e ad 9e 5e 3e fe cc 8c 3e 5f e5 8b 3d
       0.33545324 0.21740218 0.27500147 0.068308584
000140 d9 76 9e 3f 93 8e e7 3e 6d f4 cb 3e 59 3e 50 bf
       1.238002 0.45225963 0.3983492 -0.81345135
000150 11 c9 a5 3f ff a5 d6 3e ba 7c 2a 3f 27 07 b6 3d
       1.2951986 0.4192352 0.6659657 0.08888083
000160 db ff 6a be cd af c5 be 06 0a 57 bf 7a ac 93 be
       -0.22949164 -0.38610688 -0.8399967 -0.28842527
000170 e6 dc 35 bf 07 70 45 bd fc 58 7f bd 04 63 c7 be
       -0.7104019 -0.04820254 -0.06234072 -0.3894273
000180 74 87 80 bf ee fb bd 3e cd d5 25 3f 21 7f e2 3e
       -1.0041337 0.3710627 0.6477936 0.44237617
000190 65 33 6c 3f 59 9d 4e 3f 91 9c 9d 3e 13 05 12 3f
       0.9226592 0.80708843 0.30783513 0.5703899
0001a0 5f e0 64 3d ed 0d 1c be f4 4e 01 bf 68 38 df 3e
       0.05587804 -0.15239687 -0.505111 0.43597722
0001b0 53 3a 8e 3f 69 35 be 3e 54 e0 20 3e f7 00 2c 3f
       1.1111549 0.37150124 0.15710574 0.6718897
0001c0 56 af 66 bd 4f 4c e2 3e 08 a3 ce 3e 93 85 0d 3f
       -0.056319557 0.44198844 0.40358758 0.55281943
0001d0 3b cf 01 bf ef 8a 43 bf fe 70 e1 be f5 4c b9 be
       -0.50706834 -0.7638387 -0.4403152 -0.36191526
0001e0 d4 fc 44 bf f0 12 84 3f d1 5b de bc 62 60 39 3f
       -0.76948285 1.0318279 -0.02714339 0.72412694
0001f0 e5 2c b5 be 55 11 e1 3e e4 4d 9b 3d 1f da 7d 3e
       -0.35385814 0.43958536 0.07583216 0.24790238
000200 25 56 06 3f 50 02 67 be 46 d3 88 3e 12 0d fe 3e
       0.52475196 -0.22559476 0.2672369 0.49619347
000210 3a da e5 3e b2 9b aa 3e 5b 88 19 3f 6e dc fd 3d
       0.44893056 0.3332191 0.59973687 0.12395559
000220 78 07 23 3f 57 f6 33 3f 9c f7 79 be f5 7b 7d bf
       0.6368327 0.7029776 -0.24410862 -0.9901727
000230 06 17 4d bf 8d e3 36 bf 2d b4 56 3f fa 39 47 bf
       -0.80113256 -0.71440965 0.83868676 -0.7782284
000240 24 24 36 3f 60 b5 c2 bf f4 7b 4e 3e b7 72 42 bf
       0.71148896 -1.5211601 0.20164472 -0.7595629
000250 5d a3 91 3d 45 70 28 bf 16 4b f8 3e 0a 0d 41 3e
       0.07111237 -0.6579631 0.48494786 0.1885263
000260 b9 1a 59 3e 86 fb 18 bf 60 89 80 3e 1b 85 77 3e
       0.212016 -0.59758794 0.2510481 0.2417187
000270 99 4d b8 3f 89 0e 02 bf a8 e6 43 3f b9 c0 b7 bd
       1.4398681 -0.5080343 0.7652383 -0.08972306
000280 4c 2d 03 3f 1d 7e 54 bf 2f be 6f 3e ae a5 53 be
       0.5124099 -0.83004934 0.23412393 -0.2066867
000290 15 09 94 3e d7 66 35 bf 37 6d c5 3e c9 b3 33 3e
       0.2891318 -0.70860046 0.38559887 0.17549051
0002a0 c8 82 77 bf 76 7c 4c 3f 81 0c 4a 3f 52 59 fe 3e
       -0.9668393 0.7987741 0.7892533 0.4967752
0002b0 95 9e 10 3f 0c 47 43 bf 0c f9 7a be 0d 94 75 3e
       0.56491977 -0.76280284 -0.24509066 0.23982258
0002c0 75 53 40 bf a4 91 3e bd 27 b8 0d 3d 41 0f e9 3e
       -0.75127345 -0.046525612 0.03459945 0.4551945
0002d0 dd 52 96 be c4 e2 72 3e c0 e5 3b bf 66 3b 72 3f
       -0.29360095 0.23719317 -0.73397446 0.94621885
0002e0 bc f6 6e 3e 78 61 98 be dc a4 50 3f b3 64 19 bf
       0.23336309 -0.29761863 0.81501555 -0.5991928
0002f0 3c 7e 3c be 15 04 9e 3f dd db 0f bf 8a 68 5d bf
       -0.1840753 1.2344996 -0.5619486 -0.8648764
000300 a9 2d 1f 3f 7d df 42 3f 7e 72 23 3f 00 3b 36 3f
       0.62179047 0.76122266 0.63846576 0.71183777
000310 7d bc 53 bf 8a e9 eb be de c7 73 bf 8c c3 55 3d
       -0.82709485 -0.46076614 -0.9522685 0.05218844
000320 96 57 7f 3e 6c a0 45 be 5d 55 63 bf 6d 6b a4 be
       0.24935755 -0.19299477 -0.8880213 -0.3211321
000330 62 33 e8 be f5 cf 60 3f 42 7b 8c bf c3 af 51 3d
       -0.45351702 0.8781732 -1.0975115 0.05119301
000340 6b 67 4d bf 10 4d 9f 3d 15 40 85 bf e5 b8 05 3f
       -0.8023593 0.077783704 -1.0410181 0.5223525
000350 f9 bd ff 3d a7 ca 9b be 5f 3f 50 3f ae d4 dd 3e
       0.12487406 -0.3042805 0.81346697 0.43326324
000360 76 1c 4b 3f 99 eb f1 3d 5e 36 15 3f 05 6e 1c bf
       0.793403 0.11812515 0.5828608 -0.61105376
000370 5c f1 e2 3e d6 f8 49 bf fc 69 05 bf 0c a5 04 3f
       0.44324768 -0.7889532 -0.52114844 0.5181434

fc2.bias f4 [7]
000000 f3 86 0b 3e 6a 00 be 3e 25 4f 1f 3e 50 d9 73 be
       0.13625698 0.3710969 0.15557535 -0.23813367
000010 11 6f 2a be 6f e9 a0 3d c0 b3 87 bd
       -0.16643931 0.07857024 -0.066260815
